GPNet/GPNet3.pth (torch_old, 25787 bytes, 6 tensors)

fc1.weight f8 [50, 6]
000000 fd b1 d4 00 fb d4 7e bf 07 e5 b8 7f 9d 65 c8 3f
       -0.007527332765033365 0.19060105072438935
000010 9e 43 7c dd 56 47 b5 3f 14 67 55 ea 18 1a b6 3f
       0.083119801591478 0.08633571358714348
000020 68 bd 7a 74 9d ce d7 3f 94 07 19 19 f6 f0 d5 bf
       0.37198578238436264 -0.3428321118445805
000030 c8 cc a8 76 f9 d9 c7 3f c8 38 48 8b c5 ef 9f 3f
       0.18633955282130032 0.031188093782525766
000040 64 5d 6a 7d dd b7 d7 bf e2 8b 5e 2b 92 83 d9 bf
       -0.3705972409020062 -0.3986554549721274
000050 d4 aa 52 c7 ec 73 ce 3f c7 d9 cf 1b cd 0c ad 3f
       0.2379127476936761 0.05673829044819772
000060 d1 80 61 02 44 64 70 bf a8 f5 2f 2f 4e e7 ca 3f
       -0.0040018707860271655 0.21018388084477846
000070 ca 07 cc ee bc 9d c0 bf f4 ae 0e 59 5c 04 d4 bf
       -0.1298137823105761 -0.3127661580754044
000080 9b 4b 87 29 25 c9 e0 bf 37 b0 f7 a9 e7 4b d3 bf
       -0.5245538531402077 -0.3015078697051225
000090 a0 41 7e 89 2d 0c bf bf a1 61 7b 11 3a d5 ac 3f
       -0.12127956969039255 0.056314291605022555
0000a0 7d dc 6d 1c 52 73 d1 3f c8 34 d6 02 ff 58 d0 3f
       0.27266361976894143 0.2554318931295936
0000b0 61 6e 8c 30 16 a6 cd 3f 72 8c 96 02 80 a0 d1 bf
       0.2316310631803047 -0.2754211449884628
0000c0 0f ce 5d 7e 53 7b d0 bf 0c 8c 6c b9 27 3d d1 bf
       -0.25752723064872013 -0.26935761554540316
0000d0 c0 f9 48 b3 7f 67 d7 bf a5 66 6c 2e 55 39 c5 bf
       -0.3656920672255204 -0.16581215636033622
0000e0 2d 12 6d c0 32 a1 bc bf ba cf 82 f7 72 57 ce bf
       -0.11183469007398435 -0.23704373441216636
0000f0 95 b9 a3 fb e1 a2 d7 3f a9 20 b3 de 56 42 d8 bf
       0.3693165738503919 -0.37904903171557663
000100 3e 88 ba 70 31 0f cd bf 85 13 2a 78 aa 15 c7 3f
       -0.22702615742042725 0.18034869067573936
000110 72 3b 97 7a 00 cd be bf 94 9f 9c 61 9e 1d d6 3f
       -0.12031558030069592 0.3455577805748302
000120 13 c6 00 8e 7f 62 d0 bf 3d b9 e8 e8 c1 ec c3 bf
       -0.2560118567226663 -0.1556627642871237
000130 fc 99 18 b5 fb c2 dc bf a2 65 41 51 13 c0 c8 bf
       -0.44940083203474024 -0.1933616778140222
000140 28 80 91 1d 35 b9 99 3f dd c1 09 e4 e6 38 bc bf
       0.025120572976789074 -0.11024325435005929
000150 ff 8e af 6e 6a e1 c2 3f c7 30 d8 34 f7 9a 90 bf
       0.14750414280489818 -0.016216147041675535
000160 ee 4c e4 99 26 b7 d5 bf c3 bd 89 1c 4e ed d3 bf
       -0.3393036368226622 -0.3113589552585518
000170 13 9d ef 0a b3 96 d7 bf 69 58 cb e0 d2 40 cc 3f
       -0.368572960548094 0.22072826362881706
000180 91 7b 9f 90 82 ab 94 3f bc ad fe 7f 31 7a cc bf
       0.02018550880154241 -0.22247904538867924
000190 57 59 f5 69 1d 4a cc bf a6 dd d3 fe dc 0f a7 bf
       -0.22101180719136934 -0.045042902094731205
0001a0 30 70 4f af bf cc b5 3f 49 23 d6 b4 3e b1 c4 3f
       0.08515546827351339 0.1616590865126233
0001b0 0e 18 ea 7d 01 fa 9e bf 1c 6f a6 0b a1 3f d3 bf
       -0.030250571546751863 -0.3007586110850171
0001c0 ed a7 52 c8 2c c5 d9 bf c7 3e 55 ed 66 52 d0 3f
       -0.402659602763946 0.25502942254113886
0001d0 a4 75 10 26 8d 76 d4 bf 25 f7 ee 03 7e 9e d4 3f
       -0.3197358009072906 0.3221735990917856
0001e0 92 69 78 9d f0 ea d2 bf 76 ab d9 90 65 9a ac 3f
       -0.2955895936771863 0.05586545365516475
0001f0 e5 de 10 37 9a d9 da 3f 59 bb 97 c6 df cc c1 bf
       0.4195313966515484 -0.1390647620860033
000200 d8 27 03 e1 8a 25 c1 bf f2 28 72 84 db 7a ad bf
       -0.13395820605211273 -0.05757795326015182
000210 6f 28 84 aa e6 9f ca 3f 03 b2 e5 ce 9d cb d1 bf
       0.20800479246128442 -0.27805276112374616
000220 76 d3 7e e2 d4 c6 a5 3f 63 6f 6f 84 3d ad d1 bf
       0.04253258957707022 -0.2761987489045536
000230 20 e2 d7 fc ea 05 d5 3f 09 0c 55 19 c7 39 cd bf
       0.32848620120742744 -0.2283257363979774
000240 56 96 5d 8c 6d 96 d3 3f 5c 4f 46 47 37 33 d1 bf
       0.30605639178825095 -0.26875097237028966
000250 c7 c7 b6 f5 8b b2 a2 bf 34 b5 70 7d 7e 97 d3 3f
       -0.03651845335424713 0.3061214661600673
000260 09 40 f6 fb 3b 55 d1 bf 6b 70 b8 0f bc 9f d4 3f
       -0.270827289635236 0.32224942717744537
000270 0c 6b e1 3d 2b 6b d8 bf df 26 ff f8 1b 88 c7 3f
       -0.3815410713483949 0.18384122522393562
000280 46 4b ec 5c 34 d0 d6 3f 87 e1 19 2a 56 b9 d6 bf
       0.35645779680742284 -0.3550620471137553
000290 88 f8 9d 33 90 13 78 3f 8b f2 a4 52 0b e7 d6 3f
       0.005878032004941976 0.3578518206666465
0002a0 24 02 b8 c1 19 fd c5 3f e6 67 69 98 b3 85 d2 3f
       0.17178651770520148 0.2894104946514048
0002b0 d1 7f 8b a6 3f 26 c4 3f fb e1 ce e3 a3 eb b5 bf
       0.1574172557075131 -0.08562683402750075
0002c0 76 44 b8 bf 14 6a dc bf 22 7c b7 37 b9 fc d4 3f
       -0.44397467348705477 0.32792501870238955
0002d0 ed c6 28 0e 69 38 be bf d5 d5 b6 cc d3 e0 cd bf
       -0.11804825397191694 -0.23342368598757327
0002e0 1e 5d 96 5e 87 0f d2 bf be d6 9d 98 c0 53 d9 bf
       -0.2821978019432708 -0.3957368364711832
0002f0 86 0a d4 6d 74 a1 b4 bf 53 a0 fa eb f4 3a c7 bf
       -0.08058860474924687 -0.18148671648418943
000300 10 b5 9e f6 23 71 9a 3f b9 62 f3 95 18 de d2 3f
       0.02582222168682785 0.29480566638589384
000310 4e 3e 6d e7 03 bc cd 3f 2f e0 29 24 b1 48 cc 3f
       0.23230027008183857 0.22096838250922832
000320 9e 34 e2 4c 96 56 b0 bf 9b ed 98 6f a0 80 d5 3f
       -0.06382121445695296 0.3359757509058114
000330 b1 35 8a 70 37 33 d2 bf de 35 92 a0 34 6f 71 bf
       -0.284376010801533 -0.00425644452583415
000340 4b ae ab 6b 7a 47 d3 bf 91 34 54 fb 41 75 87 bf
       -0.3012376834364871 -0.011454120142412346
000350 e8 b5 b1 17 eb 97 d4 3f 91 63 f5 6e a5 64 a0 3f
       0.3217723590267654 0.03201786975359434
000360 bf 20 7d 01 90 fc 93 bf 04 51 c5 b6 2d a2 c7 3f
       -0.01951813706480787 0.18463679718355064
000370 2b 43 12 c1 4a ac d2 3f d0 c6 91 00 7d f8 db 3f
       0.29176586966154855 0.4370415216027199
000380 a9 4b 17 92 1d 95 c6 bf fe 9c f6 22 16 6b c6 3f
       -0.17642564423894427 0.17514301974481578
000390 b1 19 9d 06 3f 60 d4 3f 51 0c 93 d0 bf d5 c8 3f
       0.3183744015299466 0.19402311023995591
0003a0 b7 49 1b d5 0b 99 d7 bf 9c f5 ef ab 86 f4 c5 3f
       -0.3687161999816015 0.17152484317186356
0003b0 a5 fa 7d bf da cc cf bf 42 b6 87 39 d5 c1 d6 3f
       -0.24843916273308256 0.35558062189270256
0003c0 c4 69 56 78 1b 20 d5 bf 43 93 2d d2 c8 77 47 3f
       -0.3300846743747139 0.0007161837169006108
0003d0 c0 e1 36 7d cb a1 c0 3f e4 49 e8 34 9e b6 c7 bf
       0.1299375878713942 -0.18526055892341653
0003e0 73 0f 6d a8 3c 91 c3 3f dd 2e d3 1a 6f 57 d5 bf
       0.15286977981497393 -0.3334615480386967
0003f0 b5 d0 c1 e7 9d cd d1 bf 06 be b5 05 ce 31 d7 bf
       -0.2781748545887795 -0.36241484220133235
000400 ce 9d c7 41 e1 d7 ab 3f fc f4 2e 9f ec 18 a5 bf
       0.05438140800452694 -0.041205782348223224
000410 08 a5 94 34 25 5a c4 3f ba a9 08 5a 5f ba c0 bf
       0.15900101725973337 -0.13068763633903108
000420 54 ba 72 c3 1e 85 d1 3f e8 dd ac 6a df e7 cd bf
       0.27375001036390256 -0.2336386938929842
000430 75 86 1a 6d 4f f3 d2 bf 60 b9 10 f5 24 3d 82 bf
       -0.29610047964715785 -0.008905686119842826
000440 fa 84 e9 20 18 89 c2 3f 43 29 64 3e 4e b1 b5 bf
       0.1448087845520048 -0.08473671935295095
000450 6e 80 a1 fe 3b 07 d0 3f 96 f1 3b 6a 0f a4 d5 bf
       0.25044154993339063 -0.3381384408419533
000460 28 8a ee c7 8d cd d9 3f 43 01 3e 2e 62 41 d3 bf
       0.40317101025189794 -0.300865693243413
000470 32 8f c9 2d 42 a3 ae bf 50 b3 52 fb b3 b7 d1 3f
       -0.059839313592219404 0.27683734458223785
000480 76 c4 8c 06 ba dd d3 3f 0a 29 fb e4 ee 57 d9 3f
       0.31040812148700725 0.39599201547083906
000490 e6 ba 7b f2 a8 2f 9d bf 2d b2 9b 9f c5 fe 79 bf
       -0.028502120780951844 -0.006346485106160799
0004a0 d4 5a 87 6d 3b 1c c7 bf 38 1b e1 30 bf 75 d9 bf
       -0.18054907653887275 -0.397811696752274
0004b0 0f 62 6f 25 c0 48 cb bf 7c c4 09 5b 1d 5e d3 bf
       -0.21315767124066595 -0.30261930361218226
0004c0 ed 53 e4 52 94 1f da bf a2 50 e5 31 53 f6 c7 3f
       -0.40817745299256 0.1872047418243073
0004d0 1e a8 30 86 cc 16 d5 bf 91 ef c4 8e 36 dc c7 3f
       -0.3295165358018738 0.18640787097126268
0004e0 c7 b7 9b 40 06 b5 c7 bf e9 9d 51 7e dc fb c8 bf
       -0.18521192698193387 -0.19518619697485853
0004f0 31 5a 11 6b 4b 4e a9 bf 08 d3 a9 c6 b9 b8 d7 bf
       -0.04942546541194693 -0.3706497612068209
000500 03 77 25 33 f4 c8 97 bf 7d 21 d8 54 72 ee ce 3f
       -0.023227515813565535 0.24165181296144658
000510 0f 96 d8 ec 70 ce cb 3f cc 1c d7 31 1b b1 d3 bf
       0.21723758282421143 -0.30768470637526657
000520 05 6e aa 57 a0 1f d2 3f dc d0 f1 0c 6a 48 97 bf
       0.2831803184614901 -0.02273717597968604
000530 66 94 a9 a3 e2 5d d3 3f 8e 57 db 5b fb b8 af bf
       0.3026053045526339 -0.061958174670208796
000540 a0 b4 a9 ac e1 4c d1 3f b8 8f b7 33 20 0c d8 3f
       0.27031747686016594 0.37574009943477504
000550 63 ad 24 45 10 ab c1 bf db 84 6e 95 59 58 db bf
       -0.13803294540535224 -0.4272674521726693
000560 ae 4a f1 3b bc 0c d5 3f c7 c3 f9 87 ad 46 8b 3f
       0.32890230039371715 0.01331840106215222
000570 11 06 8b 72 e7 51 d2 3f 35 85 aa 89 c5 87 b8 3f
       0.28624902902456123 0.09582171069134378
000580 c6 79 ce e5 2a 4b da bf dd 77 06 44 a4 b3 c6 bf
       -0.410837864323096 -0.17735722848459448
000590 1d 3c a2 aa 25 41 c3 3f 27 b5 22 28 a0 7b c0 3f
       0.15042563277936064 0.12877275428528742
0005a0 e0 b5 c8 67 22 95 c5 3f fe f4 72 dc 18 51 d0 bf
       0.1686137205846725 -0.254949775011326
0005b0 21 61 1d 03 5d a4 c6 bf 36 7b 6e 35 57 5d 8f 3f
       -0.17689097072685292 0.015314751928426778
0005c0 7b ea 75 b2 a8 77 d1 bf 2b 25 8e 4a f9 19 d4 bf
       -0.27292840411943303 -0.314085314567438
0005d0 8d a1 07 97 78 a1 d5 3f 2f 5c 85 be 89 01 cf 3f
       0.3379804110432126 0.24223443796901864
0005e0 48 36 63 30 0c da a7 bf 44 f0 92 ac 23 cf c9 bf
       -0.04658544626873301 -0.20163389135803034
0005f0 a6 92 8b 4f 2c af d5 3f e1 5d 28 b9 19 8e d3 3f
       0.3388167168434769 0.3055481250935071
000600 7e 66 15 7c cd 54 c6 bf 2b 19 a7 ce 0c c9 d7 bf
       -0.17446297224778456 -0.3716461198895497
000610 8d 79 be e3 9a f1 d6 3f 19 68 42 b8 6c 8d d4 3f
       0.3584964012205994 0.3211318778427326
000620 de f5 a8 5a c1 87 c3 bf 9a 75 e4 05 89 2a b2 3f
       -0.15258042265661137 0.07096153634889504
000630 ca 27 d4 85 90 3f bf bf 30 93 ac ef 10 f6 a3 3f
       -0.122063667939215 0.03898671079358562
000640 d7 fd 40 13 3c b3 b3 3f 57 bf 8b d2 b8 a4 d8 3f
       0.07695365400376573 0.3850538307296935
000650 fd 0d d6 50 da ce b8 bf dd 2f 08 5c ee 1c d0 bf
       -0.09690632318056909 -0.25176581370828705
000660 95 2d 96 24 84 ae 84 bf ba d7 20 c5 58 5a d8 bf
       -0.010098488203559334 -0.3805143284874891
000670 67 ab 63 3e 8c 98 c8 bf 79 0f 1a f0 3d 36 ba bf
       -0.19215539022783476 -0.10239016639576261
000680 54 9f 35 1f 10 2b ba bf 1f f5 90 d1 04 89 c2 3f
       -0.10221958887052313 0.14480648262716841
000690 6f d1 6f 97 3e 9a d5 bf ba 67 67 e2 3a 20 d1 bf
       -0.33753933705090494 -0.2675921641326756
0006a0 99 c9 59 19 8b 7f b1 bf 45 46 0b da db 06 da 3f
       -0.06835240715898862 0.40666862767566087
0006b0 41 8f 7f 50 78 ab d7 bf 1c d4 d5 7f 1a 24 d6 bf
       -0.3698406969181072 -0.34595358356392736
0006c0 6f e1 1b a9 9d cf c6 bf 60 2c fb 85 79 4c d1 3f
       -0.17821093327780654 0.270292645302737
0006d0 ff 95 4f 2b 66 a2 af bf df bf cc 1c b8 5a c0 3f
       -0.06178588179299637 0.12776852995148055
0006e0 e6 00 69 f6 61 3b d0 3f 9e 9f 4c 61 0a 3b d4 bf
       0.25362443030827675 -0.31610354902158544
0006f0 a2 32 74 51 1f db d1 bf 04 f3 8f b5 46 8c d2 3f
       -0.27899916605455577 0.28981178026860754
000700 50 78 cc 54 fc f3 c7 3f f5 f6 fd 49 70 8a da 3f
       0.18713335171281864 0.41469962335382543
000710 4d d1 63 d4 97 0c d8 bf 82 4d 4a 00 14 43 d2 bf
       -0.3757686208839644 -0.2853441241106439
000720 5d 4a 39 31 e3 2b d4 3f 33 c1 7a 35 8d 97 b1 3f
       0.31517867857943377 0.06871874385501968
000730 2e 58 4b 1a a3 dc c5 3f aa b1 5c 1a 30 73 ce 3f
       0.170795810545941 0.2378902558060763
000740 42 9e 47 16 d7 23 c1 3f 81 7b 0a 36 e5 81 97 bf
       0.13390625560644948 -0.022956448958776136
000750 79 8a 83 6a 47 bd c5 bf 96 89 ea b8 2a 2d ce bf
       -0.16983883572455108 -0.23575338391408412
000760 2e c1 d7 b7 2b 7c ab bf bd 74 9d 80 21 df dd 3f
       -0.0536817228238554 0.4667438274389715
000770 fa fa 58 dd 3e 89 d4 bf 4b 6f a7 31 0f 7f c3 bf
       -0.320876804504152 -0.15231504368318335
000780 08 a2 91 d2 79 f2 b2 3f 79 8b 35 72 02 a6 d5 3f
       0.07401238814203037 0.3382574191402266
000790 05 b1 24 bd 36 dd cf bf 3b 56 88 91 5d 1f d8 bf
       -0.24893841014398546 -0.3769143983093703
0007a0 8e 31 1c 2a b7 a6 a8 3f c4 68 59 be ba 96 d1 3f
       0.04814693821944892 0.274824796569771
0007b0 25 04 63 4a bc 8c c6 3f 55 76 71 ef 68 1d cb bf
       0.1761699069229802 -0.21183501903117255
0007c0 24 fb 10 7c aa 4a d6 bf 1c e5 b5 e3 e4 d6 db bf
       -0.3483072482667231 -0.4349910949454896
0007d0 b7 c3 2b 13 e5 44 db bf 76 20 cf 65 b9 cc d5 bf
       -0.42608000633395754 -0.34062037412923674
0007e0 53 61 4c 01 7b f4 d7 3f f0 1c d4 0d 5c fd cb 3f
       0.3742969048194215 0.21866942095969177
0007f0 f7 28 26 56 c8 d1 d0 bf a3 05 52 23 67 a1 c9 3f
       -0.26280411160463707 0.20023812508229097

fc1.bias f8 [50]
000000 9c 5e fc 12 76 28 a2 3f c6 84 6e ed 4a 5f 7b 3f
       0.03546494466553193 0.006682675061626847
000010 01 0e e3 06 22 27 e1 3f e7 83 5e 31 b9 0c d9 3f
       0.5360269674787902 0.3914015752907844
000020 55 66 d1 fd 70 e9 98 3f 47 28 eb 79 7a 28 c6 3f
       0.024328008167094534 0.17311030343108966
000030 b7 2e 1d e0 26 5d b9 3f a7 0c 40 be 16 d6 d7 3f
       0.09907763453991945 0.37244194583053986
000040 ba b2 51 cd bf 96 c1 bf f1 b7 23 6a 41 1f c8 bf
       -0.13741300130222617 -0.18845384295076387
000050 cf 87 ac 36 36 32 c4 bf 96 e1 bb 3b 54 50 95 bf
       -0.1577823416674264 -0.020814243455761515
000060 0c 66 f8 f3 39 7d c3 bf ae 74 68 99 f1 a6 ca 3f
       -0.15225910580265667 0.20821971884371265
000070 bf 83 b3 69 e3 20 ab bf 44 81 33 11 3c f7 9e 3f
       -0.0529852930574246 0.03024000029552211
000080 ad ca 23 a0 f5 33 b0 3f f7 49 73 98 1e 92 c4 3f
       0.06329283866561282 0.16070921367516153
000090 ab 0d 11 b4 24 bf bc bf f5 02 20 f5 14 a1 ce bf
       -0.11229161640317524 -0.23929082840916008
0000a0 98 1e 44 d6 a1 39 c3 bf 80 29 e0 16 e4 65 c4 3f
       -0.15019629442416682 0.1593594657609394
0000b0 16 10 cf bc 8d a1 d7 3f dd f4 a9 58 b9 e4 c2 bf
       0.36923545301783756 -0.14760510281840925
0000c0 47 64 f7 e5 18 b2 c6 bf 64 88 0b 5d 4e ca d7 bf
       -0.1773100970156369 -0.37172278486662536
0000d0 f4 c1 96 24 16 84 b4 bf 35 7a 8b a8 a6 84 c9 3f
       -0.0801404799774515 0.19936068753936956
0000e0 65 bc 65 77 a9 26 da bf 92 40 66 92 d7 3a ce bf
       -0.40860973987486765 -0.23617071770104708
0000f0 17 e5 4d 29 9e 88 d0 bf a7 0c 84 26 ef e7 ba 3f
       -0.25833848985310354 0.10510153475120153
000100 11 d3 12 6e b2 ca ce 3f 50 19 9f 75 4b a1 ca bf
       0.24056082129177317 -0.2080473255466111
000110 d0 84 ec 01 e7 e2 89 3f 8f 1e aa 1b eb 9b cd bf
       0.01263981318112642 -0.23132075167471952
000120 ca ee 4b 2b b5 d1 da 3f 43 50 59 ec c9 aa b5 bf
       0.4190495417421799 -0.08463727970348693
000130 f7 fa 67 15 fa a8 c9 bf 9e 41 da 05 72 ad d5 3f
       -0.20046926541541385 0.3387112671998923
000140 db 6d 18 d5 ae 29 b2 bf d2 5f a8 45 01 2b d5 3f
       -0.07094853117489867 0.3307498150111289
000150 fd 8d ab 60 73 44 d1 bf 96 1e f5 5c ed fc bb bf
       -0.269802898792676 -0.10932811278791585
000160 63 ff 7d 68 58 5f d2 bf 39 69 4b 31 b1 2d df 3f
       -0.2870694179946353 0.48716382802890085
000170 cd fc 35 3b db ea c2 3f 8d c2 42 fe e0 11 bc bf
       0.14779224768788027 -0.10964781005419351
000180 fc c5 a3 3e 2e a2 9f 3f e9 f8 39 c0 0b bd 82 3f
       0.030892107556558898 0.009149638942514264

fc2.weight f8 [50, 50]
000000 7b 8f c7 86 3d ae 88 bf ed 15 e0 42 33 ff b2 bf
       -0.012051087070126467 -0.07420654661844824
000010 35 47 1c 4f 24 4f ac 3f 43 95 5b 31 25 83 b5 bf
       0.055291304261244546 -0.08403236823104003
000020 dc 1b da 34 50 30 a4 bf 2a 7b ae 79 df 7c b7 3f
       -0.03943110127607216 0.09174916001073244
000030 04 c2 2f 8a e3 ec b4 3f bb cd a5 df 6d 6e 63 3f
       0.08173963664717837 0.0023719926804745806
000040 50 04 41 c2 0e 8f bf 3f e6 65 c9 77 d2 0a 96 bf
       0.1232766365292417 -0.02152565818901122
000050 04 79 68 ee f6 74 b0 bf ea 54 fc c2 8c 0d ab 3f
       -0.06428473778257532 0.05283775215336013
000060 af c9 37 62 4c 69 af bf 22 e8 75 ea 3b d5 c2 bf
       -0.06135023783635362 -0.1471323866679209
000070 eb 8b 48 d5 ff ef b5 3f 74 7e bf 58 ea 84 a0 bf
       0.08569334942926303 -0.03226406415319341
000080 26 8d 27 7d 9d 36 b0 bf 0d 8e 53 6e 57 f6 be bf
       -0.06333336167840695 -0.12094637340083399
000090 7f f7 84 f6 19 a3 a2 3f 70 16 e3 4e 11 8b c0 bf
       0.036400615065288904 -0.1292440066519478
0000a0 9b 19 bc 13 20 dc bc bf 0b 3e 38 91 23 4b b5 bf
       -0.11273384553724101 -0.08317777915385009
0000b0 d0 48 40 1f da 1f ba bf 6b 7d 20 34 34 cd ae bf
       -0.10204852354971483 -0.06015933166804185
0000c0 89 8b 2a 4b 67 c1 91 bf a5 4a 14 4c 1e 87 b1 bf
       -0.017339338267116786 -0.06846799237636476
0000d0 40 bd 95 ee 25 45 76 3f f1 ca e1 98 16 d8 b3 3f
       0.00543703858544059 0.0775159953353002
0000e0 71 3b 11 2b 5f a9 97 bf 83 0f fb 21 f5 19 ad 3f
       -0.023107039455051607 0.056838665388140995
0000f0 3b d9 14 cf 51 de 9d 3f 57 d0 20 e9 44 52 c0 3f
       0.029168394340751674 0.1275106561967074
000100 ac de 46 15 d5 39 c2 bf 91 9a 3a 26 7d f3 b0 3f
       -0.1423899034395978 0.0662153452236487
000110 5c 47 d2 56 de 12 a7 bf 60 e6 24 b0 76 93 bf bf
       -0.04506583032447395 -0.12334386635202454
000120 22 ce 9e cb 67 85 c0 3f 1b 66 6a 75 f0 9c b0 3f
       0.12907121126555504 0.06489470354645059
000130 3c de 46 be c7 d1 c0 bf fc 7d b8 29 28 02 a8 3f
       -0.13140198508129852 0.04689145573888351
000140 4f cc bc 70 9a f7 91 3f a9 80 dd 8d 76 c4 b8 bf
       0.017546094065618963 -0.09674778903490967
000150 a3 dc a3 89 48 2b b0 3f a7 be 27 0b 59 f5 92 bf
       0.063160451510941 -0.018514052682745554
000160 23 f2 71 8b 73 0a bf bf c5 85 2b 7e 07 ac ad bf
       -0.12125322489186678 -0.05795310416375402
000170 06 43 9d d8 1b f0 ae bf 23 91 f9 b7 35 87 9b 3f
       -0.060425634567428374 0.02688297210114955
000180 85 2a ad 8f 79 be a2 bf f6 fc 6e 5b 71 1f c1 3f
       -0.036609457768084254 0.1337720581486576
000190 ee a1 72 4c 51 36 c0 3f bc 70 45 93 55 63 b6 3f
       0.12665764076997682 0.08745322080125367
0001a0 7a 32 b3 1b 78 35 72 3f 98 ea 11 71 2f 3d b4 3f
       0.004445523426693238 0.07905861387727453
0001b0 60 82 37 ba 79 98 aa 3f ea d9 b4 77 ac d9 bd bf
       0.05194454572825147 -0.1166026870967937
0001c0 90 c2 b6 48 c1 0d a5 3f 41 1e c3 b0 93 37 b4 bf
       0.04112056744213988 -0.07897303643687172
0001d0 bc 1c b6 5f 8d c8 7f 3f e3 a2 60 6e 9e 05 9b 3f
       0.007759620896997162 0.026388621794612
0001e0 be 8b 3d dc 2b c6 b3 3f 98 ef 9b e2 64 f3 b8 bf
       0.07724260451281759 -0.09746389896821339
0001f0 58 1e 3b 6d 36 31 ab bf 18 35 63 3d d9 7e ba bf
       -0.05310983737359426 -0.10349805592268913
000200 ea 6b 52 bb 90 dc 72 3f 7b 46 54 3e 50 9d c1 bf
       0.004604878767305623 -0.13761332553308478
000210 ce e2 8e 6e 30 54 a5 bf 7a 77 20 97 2a ca 93 bf
       -0.04165793752276202 -0.019325890993165264
000220 ed bb 9a 69 d3 9e 82 3f 8d b6 75 b9 30 19 78 bf
       0.009091998729983753 -0.005883398370640014
000230 6c f9 c3 5f 8a 1c 9c 3f e4 a1 5e 25 d2 1c c0 bf
       0.027452623457969436 -0.1258795435399086
000240 d3 35 98 db 44 39 a4 bf b7 e8 22 bf a0 5d a0 3f
       -0.0394994276103763 0.031964324314189545
000250 b9 e0 b9 a8 85 9e 95 3f bb b6 dd e1 82 d2 b0 3f
       0.02111252634355829 0.06571214689548814
000260 1f 79 98 00 d7 5d 7e bf 85 e9 24 7e 2c c5 9f bf
       -0.0074137114075070445 -0.03102559585497879
000270 9e b3 b7 9a ac 35 c2 bf 73 df fd 5c cf 44 ba 3f
       -0.1422630076844173 0.10261245746903373
000280 f2 35 0b 34 65 79 c1 bf 5f d7 15 8f a2 eb b6 bf
       -0.13651719132614876 -0.0895330046967877
000290 3b 2e 52 8c 73 98 bd bf ca 3f 81 66 8d d0 b4 3f
       -0.11560747314268209 0.08130725624619042
0002a0 33 9e 7d 3a 58 f4 9f 3f ff 31 ce 2f 15 12 b5 3f
       0.03120553833960411 0.08230717103123907
0002b0 ce b2 de fa dd 23 b2 bf f2 99 13 37 61 19 a7 bf
       -0.07085978865388684 -0.04511550710030922
0002c0 b5 d5 b1 80 77 46 a5 3f b6 3f 3a ed ff e2 b5 bf
       0.04155324407558273 -0.08549499074638231
0002d0 34 33 14 70 c5 09 b0 bf 6f e1 0c f7 ee 6f b3 3f
       -0.06264909731198715 0.07592671901227786
0002e0 4f c1 db 75 ad e0 c1 bf 38 d5 b5 8f 2b bb 9f 3f
       -0.13966911558919512 0.030987435003642733
0002f0 0a ee 89 18 69 f7 b2 3f db a5 03 ee 3b 92 76 bf
       0.07408768509952082 -0.005510553455886104
000300 d4 13 46 aa 6e be b0 bf f8 1e f1 b3 72 d0 b7 bf
       -0.06540576607774479 -0.09302441495048785
000310 eb 63 0c 39 50 33 a4 3f 34 4b 58 64 be e6 b2 bf
       0.03945398994819257 -0.0738333697302494
000320 b4 7e 07 3b 87 86 a4 3f b4 97 f7 81 2c 8e c4 3f
       0.04008886905262213 0.1605888018231646
000330 f9 9a 92 de 33 7a a1 3f 2b 60 f5 d3 b3 51 a9 3f
       0.03413545696212412 0.04945146524795548
000340 99 53 8d ff 99 d6 b3 bf 98 2e 59 d4 b1 4e 7c 3f
       -0.07749330987037552 0.006910986563137954
000350 6e 39 5e b1 06 6c 8f 3f 73 b8 35 be 51 40 bb bf
       0.015342762267917389 -0.10645018476290762
000360 40 52 71 dc 67 bd 9e bf 44 70 b4 0e 95 95 a5 bf
       -0.03001940043425777 -0.04215684704306047
000370 05 44 41 52 91 35 8e 3f f4 66 d0 cf 60 5e bc bf
       0.014750609705659565 -0.11081509660325733
000380 2c e5 ae 1f 20 36 8f bf b4 4e 6c 71 f9 88 b3 3f
       -0.015239954916853003 0.07630881327741684
000390 c3 8f cf 7f 75 8d 99 3f 5c 2f d1 68 30 e6 b1 3f
       0.024953685689879778 0.0699186569119638
0003a0 f4 68 38 cd ec 0c a2 bf 8b 2e a7 b0 4b e7 ac bf
       -0.035254859973251756 -0.05645214587601995
0003b0 db 57 ff b0 b4 36 b5 bf ea 2a e8 ca 4d af b5 bf
       -0.08286599465586113 -0.08470617488653046
0003c0 aa bf 55 cc b5 ab a6 bf 70 fd 71 57 f4 8d 89 3f
       -0.044278794472915564 0.012477787893884623
0003d0 94 2b 4a 5a dd 26 b4 bf 39 98 28 53 68 cb bf 3f
       -0.07871802763308572 0.12419750242460816
0003e0 9c 5c e9 4c d4 15 9e bf 8e ac 8a d1 cf 6c a6 bf
       -0.02938014716559377 -0.04379891808397317
0003f0 8f 63 f2 2e 3d 76 bc bf 98 7e 3f 46 d6 6a c0 3f
       -0.11117918392336733 0.1282604067809998
000400 59 8d 0d 05 2e f4 b7 bf 25 ef 39 c4 25 d1 b7 bf
       -0.09356963752138849 -0.09303508797341616
000410 ba 9e 88 fa a3 84 bc bf 2e 50 2b 4a 6a 43 c3 3f
       -0.11139893404526449 0.1504948484567889
000420 b3 d8 22 44 ef 79 b5 3f e2 a4 32 ab ec 1f 70 bf
       0.08389182485084028 -0.003936695563575317
000430 6d c3 b7 ba 7a 47 b6 bf c4 0d 6d db 16 7d b8 3f
       -0.08702818926373164 0.09565871102409235
000440 78 66 5d 98 d0 69 b6 3f e3 a0 b6 1d 35 eb 95 bf
       0.08755210609288067 -0.02140505784851222
000450 85 d8 b7 c3 1a 45 b0 3f c0 58 d0 db 38 cc a2 bf
       0.06355445173525893 -0.03671434100412929
000460 c8 a5 4d 53 98 35 c2 3f fc 5c ea de b6 04 ad bf
       0.1422605902437637 -0.05667659255157706
000470 2a a7 c5 58 7c d1 bc 3f dd e7 4b bc a7 22 a7 3f
       0.11257149855887563 0.04518627332249967
000480 41 2a 5b c9 ca 7f 93 3f f5 ef 16 83 8e a3 a1 3f
       0.01904217580776391 0.03445096349921065
000490 43 78 81 5a 06 4b 9c 3f 78 f2 a8 5e 38 68 ad bf
       0.02762994697001654 -0.05743576198117223
0004a0 90 74 1f 30 3b 20 b2 3f bf 05 70 03 c5 f5 b3 3f
       0.07080430912852109 0.077968896235709
0004b0 91 8d ee 00 7c 91 c2 bf 14 d5 35 be f3 f5 b3 bf
       -0.14506483121395466 -0.07797168153577544
0004c0 e8 fa cb 91 18 30 c3 3f cf 7c 7a 57 61 5a b2 bf
       0.14990527266487352 -0.07169159303383597
0004d0 0c 83 c2 2e 3d c4 97 3f 96 b7 d2 df 21 df b9 bf
       0.023209529856674613 -0.10106097902709474
0004e0 50 ea 85 d1 2c d8 c1 bf cb e2 aa 52 ac d2 b3 bf
       -0.13940963965053976 -0.07743336694955898
0004f0 21 89 07 e7 1e cd be 3f c5 91 0b cb 6e f9 a6 bf
       0.12031739368788809 -0.04487177113131539
000500 24 9d b5 d8 8e 95 b0 bf 4e e2 e1 0f 2b bf b1 bf
       -0.06478207388646645 -0.0693232454085628
000510 71 8f 8d 7a 77 91 b2 3f ff 4a e5 81 1b 92 82 bf
       0.07253214590087766 -0.009067740346528462
000520 24 ba ef a0 0b 95 a8 3f 1a 63 5a d1 11 8a a4 3f
       0.048012126346169276 0.040115887456698654
000530 57 0f e5 41 d4 b5 c3 3f 6b 33 c2 d9 9d 70 8b 3f
       0.153986484694651 0.013398392875638007
000540 04 d5 23 c8 a7 85 a8 bf 76 55 0f c1 03 ad b5 bf
       -0.04789470975985391 -0.08467124427200709
000550 86 a0 38 be 5f 41 ba 3f af e1 2a 9b 8e d1 bc bf
       0.10256002801964045 -0.11257258690137094
000560 74 ad 87 75 88 cd 8c 3f 4b a2 a8 42 0b 6e ba 3f
       0.01406389816926066 0.1032416379681617
000570 35 dc 2f aa 65 4b b3 3f 39 73 05 5b bf 8b 96 3f
       0.07536921887354782 0.02201746933984625
000580 cf a9 59 c0 e2 8d b4 bf 93 85 7e c5 c9 e0 b8 bf
       -0.08029000469256363 -0.09717999526630754
000590 9f 76 3e bd 61 31 c0 bf 7a f9 37 65 5b 82 b7 3f
       -0.12650701275281492 0.0918328401676031
0005a0 13 1b a1 87 c7 b6 94 bf e8 05 8b 5b 5e a0 b5 bf
       -0.020228498128086757 -0.0844782804006382
0005b0 a3 33 60 3c d3 9e bb 3f 0b 43 93 c0 fc 40 87 bf
       0.10789222930925617 -0.01135442221348761
0005c0 29 e1 d1 c2 a2 c1 bb bf 09 83 3f 48 1d eb 99 bf
       -0.1084233976015453 -0.025310952696489007
0005d0 b1 f4 60 24 39 3d bf bf 0d 59 59 9e 30 92 bc 3f
       -0.12202794206764868 0.11160568109457732
0005e0 7f 92 65 13 b4 74 b5 3f 73 e5 e2 b3 ea df af 3f
       0.08381200288347122 0.06225522466543056
0005f0 a2 2e 0b 3a 90 5a bb 3f 76 e1 52 3a 09 1e 62 bf
       0.1068506375988201 -0.00221158792791359
000600 1c c2 70 ba e7 5e bd 3f 27 fd 46 62 5e fb 4b 3f
       0.11472938825387086 0.0008539400919786209
000610 34 69 47 c7 1b 9e c2 3f 2c 98 39 f0 c9 89 c6 bf
       0.1454500887910598 -0.1760799811337973
000620 55 64 2c 42 ce 68 b1 bf 9b b7 b8 e6 3f 84 ae 3f
       -0.06800545802652043 0.059602734483959106
000630 9e 0c 76 a5 58 e5 75 bf 63 10 1b ef 2d 19 c6 bf
       -0.005345674776779634 -0.1726434152134316
000640 ca d0 c5 58 5d f8 a3 3f f1 6a 0e fe 66 d0 78 3f
       0.03900424679423649 0.006058122934428965
000650 8d 4d 65 63 87 cf a0 3f a1 66 04 92 28 d7 ac bf
       0.03283331955267519 -0.05632902891575254
000660 84 fe ea 69 4c 8c b1 bf 81 c6 01 4d e8 40 b9 3f
       -0.0685470350826965 0.09864665870716217
000670 cd 8a ab ea cc 45 68 bf cd 5b 79 eb 53 54 ab bf
       -0.0029629709509760628 -0.05337774514617131
000680 c2 73 95 ac f8 d1 c0 bf 52 d0 c1 08 95 c7 b4 bf
       -0.13140781809752694 -0.08117038215442676
000690 75 59 17 ff 58 8d a1 bf fe 59 8b 1a 6d 92 be 3f
       -0.03428152192980153 0.11942178628974173
0006a0 4c d3 fe 07 3e 12 c0 3f 7c e6 59 df 51 2b ab bf
       0.12555671110535582 -0.05306487895445586
0006b0 d6 ac 6a 26 e8 d6 89 3f 5d 13 57 70 06 d2 a2 bf
       0.012616933510193478 -0.036758614743610286
0006c0 d5 a5 a3 c9 e7 06 c0 3f 12 72 16 f7 50 45 ac bf
       0.12521073671022856 -0.05521634117323883
0006d0 fe 45 80 c0 5a 7e c2 bf 00 cc d2 9e eb 94 8b bf
       -0.1444810333201047 -0.01346763685646657
0006e0 bd 42 36 54 56 c5 c0 3f 53 5c ab 8f c0 bb 97 bf
       0.13102225410377413 -0.023177155274279503
0006f0 ff 01 c1 cf 73 53 7e 3f ad 85 67 77 c2 8f b0 bf
       0.007403805149863717 -0.06469359793802339
000700 2a de 20 4d 83 51 a5 3f 83 09 12 32 28 f3 b8 bf
       0.04163751904019038 -0.0974602815859154
000710 d6 90 33 bf f8 52 95 3f 37 c8 d2 c9 ce 43 a8 bf
       0.020824324293145256 -0.0473923322073379
000720 8e 79 32 21 ab 08 b0 bf 21 e9 19 b8 d5 ad be bf
       -0.06263227043607442 -0.1198400091615537
000730 3c 0a 6c 93 a6 37 8a 3f 48 7d ea d9 6e dd b0 3f
       0.012801457761729577 0.06587879963125431
000740 09 47 57 60 5d 41 c0 3f 52 1e 6e 20 61 d7 b7 bf
       0.12699477390429362 -0.09313017884971345
000750 3a 90 7b a1 5b dd a4 3f 66 9a b6 6d ff c8 a8 3f
       0.040751327001800466 0.048408491270767226
000760 20 a4 c3 b9 f5 c5 94 bf 39 6a bb cd a8 5a 74 bf
       -0.020286406958721526 -0.004969272031042631
000770 90 c2 80 05 3d 9b a4 bf aa 34 70 86 24 18 b8 3f
       -0.04024687473463928 0.09411838800606867
000780 9d 93 18 b3 7f f3 b3 bf 42 e5 79 2a 32 c8 41 bf
       -0.07793424723111149 -0.0005426640463631965
000790 df 35 48 2a 0b e6 b1 3f 76 75 c1 3b e2 8e a3 bf
       0.06991643698002957 -0.038199491304776
0007a0 a5 5f 45 9a d2 e6 a5 bf 1c 84 39 39 ea 80 a7 bf
       -0.04277666218939594 -0.04590541790526734
0007b0 25 f3 4e e7 75 8d b7 bf b6 98 1a c0 75 c1 b9 3f
       -0.09200226685693431 0.1006082147601742
0007c0 08 a3 e3 99 79 80 bd bf 19 72 c2 64 93 28 90 3f
       -0.1152416229921408 0.01577978422629842
0007d0 d1 fe 0d f0 14 ca 47 bf f0 79 0c 26 ac 48 a1 bf
       -0.000725994323246904 -0.033757571835156486
0007e0 66 83 46 32 26 7a b3 3f 33 e7 ec 1f 6e c2 b3 3f
       0.0760825989477901 0.07718551902226238
0007f0 69 fc af f9 e2 d0 8d 3f a1 e9 15 0d a7 b2 be bf
       0.014558575863700978 -0.11991352147553026

fc2.bias f8 [50]
000000 a8 a8 b8 a1 04 90 98 bf de 99 77 68 41 3b c1 3f
       -0.023986885424314736 0.1346208343595227
000010 6a b0 0c d3 f1 f3 b5 bf dc 07 ca ca 8f 41 96 3f
       -0.08575354960038487 0.021734472992200313
000020 a7 93 5e 44 0d 3a b9 3f a9 72 68 70 10 04 a2 3f
       0.09854205054450792 0.03518725750129665
000030 2b ca 4c b7 fe bb b5 3f 3e af 95 9d 00 f3 c2 3f
       0.08489982581230808 0.1480408448654717
000040 27 59 2d f8 97 03 ad 3f d3 22 1e 58 13 93 c1 bf
       0.0566680422258961 -0.13730088999388687
000050 75 51 92 55 e8 72 b6 bf 77 30 52 6b 40 e5 b9 3f
       -0.08769085015439322 0.10115435238020774
000060 b6 31 b7 92 88 90 a1 3f a4 3b bc d7 9d fe c0 3f
       0.03430582800828878 0.13277028116178002
000070 1a 56 e4 ad a3 5a c0 3f ba da cd f5 ad da b2 3f
       0.12776609412019085 0.07364928484990232
000080 44 0c 39 92 84 fd b8 bf ac 87 dc 15 8c de a0 3f
       -0.0976183754910816 0.032947900456078955
000090 78 d0 ff f9 a8 34 a6 3f 64 1f cd ae 19 dc b9 bf
       0.04337051440953216 -0.10101471440895932
0000a0 73 96 df 37 c2 70 ba bf 0c 29 3c b8 ba 7a a4 3f
       -0.10328306068512365 0.03999885081255358
0000b0 85 37 d0 8d 95 ea b0 3f 24 ca bd 4a ba 29 a1 3f
       0.06607947075118943 0.0335214821087855
0000c0 f9 a2 5f 14 cb 99 ba 3f 9e 63 7d 29 66 1a 99 3f
       0.10390919921304577 0.024514766962372307
0000d0 91 16 5d 52 46 e2 b1 3f ab b9 87 20 60 5e b5 bf
       0.06985892783003524 -0.08347130579179544
0000e0 25 9e ce b9 1d 0d 92 3f e8 5e d0 ca 8a 1c 81 bf
       0.017628159013524453 -0.008355221094503887
0000f0 c1 06 dc 75 b3 91 b7 3f 13 3c 0a 2b 7a 09 97 3f
       0.09206697108677543 0.022497090222312787
000100 ec 3b 48 e6 36 f2 a9 3f a0 7c 96 3d e5 31 75 bf
       0.05067607461034371 -0.005174537154203268
000110 0c dc ad 06 5f c5 95 3f 68 19 22 21 51 4c c2 3f
       0.021260723860418593 0.14295400731880226
000120 2f fb c3 c1 9b 5b ca bf 7f 86 73 e1 d6 ae b3 3f
       -0.20592066727837152 0.07688658718282147
000130 62 ea 72 37 f3 3c 98 3f 7c 01 d8 3e cb 22 bc 3f
       0.023670006045657728 0.10990591320297044
000140 1c 60 47 0d 62 65 c9 3f 0c 25 11 94 05 a6 b3 bf
       0.19840646408442886 -0.07675204148212716
000150 bd 0a a8 a5 6c 8f bd 3f f9 09 bf 6e ab da bd bf
       0.1154697327074627 -0.11661788419500131
000160 de fe 3b dc 1e 8a c0 3f fa e2 e6 60 c8 03 ac bf
       0.12921510461455105 -0.054716359928937267
000170 c9 fb 0e 74 e0 62 b7 bf 46 77 2d a9 6d b9 bb bf
       -0.0913524897905368 -0.1082981622725728
000180 e3 1e 69 d0 17 8b 56 bf e2 df 86 fd d3 dd a8 3f
       -0.0013759357986077795 0.04856741399584032

fc3.weight f8 [4, 50]
000000 af 13 ab 6e a0 00 9e bf 50 3f 3e 87 a2 a5 b0 bf
       -0.029299265627532097 -0.06502738763651661
000010 9c a0 38 db 38 d4 c0 3f 66 fc 9c b2 bc 3e ce 3f
       0.13147650436554137 0.23628958436345043
000020 d9 89 22 2c 86 43 c2 3f 43 06 6c eb 06 7e b0 3f
       0.14268567233109655 0.06442301986319258
000030 4a 1b 46 d0 b1 ed a8 bf 57 8a b5 e1 b0 ec d3 bf
       -0.0486884657612366 -0.31132146875294125
000040 45 eb a9 e5 78 8e a6 bf 54 ff c2 5b ff b7 c0 3f
       -0.04405572703850295 0.13061515789558575
000050 27 44 44 74 16 d8 87 3f 77 41 d0 33 78 e3 9d bf
       0.011642623351265936 -0.029188039934582712
000060 42 db a0 9e c9 20 c5 bf 2a c0 bf c3 7a 22 98 3f
       -0.16506309743427933 0.023569029042789826
000070 26 8b 4d 8c fd 2d b8 3f 6e 0d 41 c6 28 fa a2 3f
       0.09445175814975623 0.03706481380552416
000080 68 e5 d0 7f 08 85 d0 3f aa d5 ce f4 16 de 88 3f
       0.25811970216780944 0.012142352434106513
000090 8c 55 59 41 38 ec c7 bf 45 f4 76 40 98 25 94 3f
       -0.18689635458819642 0.019674662527666937
0000a0 ec 77 0f 63 90 0c af bf ce 46 2d 34 26 c4 91 bf
       -0.06064273080094992 -0.017349812445280936
0000b0 02 24 6f 81 82 22 d1 bf 2c ee b6 cb a9 ec cd 3f
       -0.2677313102727227 0.2337848896694238
0000c0 6b 7d 9d 21 26 b3 d2 3f ef dd f8 99 0b bb c2 3f
       0.2921843841813458 0.14633317011042332
0000d0 f7 87 ed d6 9c da c7 3f 73 18 ca 89 8e 6e c7 bf
       0.18635902876400198 -0.18306142547607215
0000e0 80 c7 28 3e ef 56 bc 3f a8 a1 7a 77 07 77 d5 3f
       0.11070151584206478 0.3353899637973208
0000f0 94 b9 f3 73 b0 6c c8 3f 6e 7d 61 dd 48 ba d1 bf
       0.19081693326684201 -0.2769949113771507
000100 10 04 44 98 57 43 ae 3f 77 39 8b 88 a6 39 cf bf
       0.059107529961700433 -0.24394685427837334
000110 b8 70 46 eb ea 61 c1 3f ba 77 01 ce db 49 c3 3f
       0.13580070961041257 0.1506914859664315
000120 d4 ee c0 b1 98 1a d5 bf e0 aa 71 22 76 08 a2 3f
       -0.329748319232505 0.035220805840102676
000130 a8 05 99 8a b1 de bf 3f b6 20 a4 60 5e 67 cb bf
       0.12449178346380185 -0.21409206122212304
000140 6d d4 2f 6e 0b c7 d2 bf 80 45 ad 3a b9 16 d0 3f
       -0.2933987213176071 0.2513869355217011
000150 d2 15 01 05 b4 90 c4 bf 31 93 5b 8a 5d cb 9f bf
       -0.1606659912523996 -0.031049214906391846
000160 cc a3 e1 b0 88 86 d0 3f 8c f5 52 6e 19 37 b0 3f
       0.25821130059790387 0.06334074920137861
000170 ff 3d f2 cb 75 95 a8 3f 2e 90 12 39 61 0b 8f bf
       0.04801529039934493 -0.015158423952307567
000180 12 2f c8 ef 26 a9 c6 bf 48 75 a5 83 54 87 a4 bf
       -0.17703711231330793 -0.04009498698244812
000190 38 2e 69 88 e9 88 b7 bf da 77 72 db bf 0c b0 3f
       -0.09193286495536135 0.06269454104992125
0001a0 3f a5 15 21 c7 35 c4 3f 78 b6 07 37 0e 66 a5 3f
       0.157891169695441 0.04179424688105099
0001b0 09 92 28 03 05 f5 90 bf 00 3c 02 82 07 2b c2 bf
       -0.01655967551973173 -0.1419381508644335
0001c0 01 51 e6 14 08 dd b5 3f d5 00 9c 08 6b 90 9a bf
       0.08540392408605514 -0.02594153633163006
0001d0 5c 88 7e da 19 77 c1 bf d3 e9 3f 17 76 a6 a7 bf
       -0.13644717377343596 -0.04619187387284609
0001e0 b5 79 62 18 47 6d b1 bf 96 26 bb 26 41 89 a0 3f
       -0.06807369561508987 0.03229716871062498
0001f0 04 49 f2 cc bc 69 ca 3f f5 20 76 2a d2 b0 ad 3f
       0.2063518524851774 0.057989661868363664
000200 58 62 1f 8c 53 75 ad bf 01 5f 43 b3 15 04 b0 3f
       -0.057535754065331346 0.06256232859174916
000210 60 39 a7 9a e9 6a c8 bf 66 5e a1 a0 c0 2f c1 3f
       -0.19076271106173248 0.13426978915480275
000220 5b f7 ad c6 5c 8f b4 3f 1e 9e 24 61 48 2c bb 3f
       0.08031253672194565 0.10614445087104982
000230 65 96 b1 57 a2 50 ce bf f2 c1 16 13 15 6a 92 bf
       -0.23683575899046896 -0.017982796945661357
000240 78 0f ed 48 43 a5 bf 3f ff ab fd 3a d7 21 c1 bf
       0.123615460685924 -0.1338452375451595
000250 0a 25 27 2f ff f3 a6 bf 4d 6d 25 58 2a 0f 9c bf
       -0.04483029795262368 -0.02740160143853858
000260 68 93 c4 aa 8b 3a 9b 3f 39 c3 34 89 8a 27 86 3f
       0.026590521142810714 0.010817606270025247
000270 76 58 e7 b1 69 a0 b9 bf 94 8b a9 89 fd 4c 9f bf
       -0.1001039561591329 -0.03056713249896921
000280 f4 cb 5c 42 48 9c b0 bf 8c f9 bb 80 40 be c9 3f
       -0.06488467807939441 0.20111852918485018
000290 60 4f 48 11 47 e4 9d 3f b7 ec 19 be 02 a3 a6 bf
       0.029191122464978903 -0.044212423043938846
0002a0 65 87 73 a0 b9 8b a2 bf 15 fc fc 97 a4 b9 af 3f
       -0.03622226794847342 0.06196321826291055
0002b0 9a 1b 37 8e d2 7a d1 3f 7a 39 b0 a3 aa 9d a4 bf
       0.273121489412398 -0.04026540039204725
0002c0 d2 18 6b bc 58 39 c0 bf e9 00 6a 7d a4 0f b1 3f
       -0.1267500801097357 0.06664493619792079
0002d0 9e 2e 2d 82 e9 70 90 3f 3a fb fb 64 16 be c0 bf
       0.016055725641577305 -0.13080100947260026
0002e0 9a f4 a6 0e f4 c7 a0 3f dd 84 0c bf 0c 8e bb 3f
       0.03277552298411841 0.1076362577846512
0002f0 b7 b6 f9 ad 71 1f b6 bf dc e9 73 82 65 24 b7 3f
       -0.08641729829261179 0.09039911684877872
000300 87 d5 95 f1 bb f7 a8 3f 90 12 c7 83 b4 15 8c bf
       0.048765061607734465 -0.013713274261030223
000310 aa c2 28 79 9b b7 c6 3f 05 25 91 f7 13 50 b1 bf
       0.17747825065591388 -0.06762814325442797
000320 0f 70 d8 8c 6f f0 c0 bf c8 42 31 74 8c d0 ac 3f
       -0.1323375165674183 0.05627859991421286
000330 29 8e ec db 3e a0 97 3f 69 79 74 fc c9 dc c0 3f
       0.02307222573575821 0.13173794581320955
000340 51 39 87 c8 72 28 a2 3f 02 51 de bc 1e 8e bf 3f
       0.03546484659055927 0.12326233016057489
000350 d0 9d 41 c7 e9 56 c3 bf 99 71 2a 9d 92 3b 96 3f
       -0.15108988026916714 0.02171162685645953
000360 b7 8f 63 97 b4 1a b2 bf 36 85 4c 79 9c 6d bd 3f
       -0.07071999259966232 0.1149537845745002
000370 5d 27 3e 66 21 5a a0 3f f5 b1 e8 c5 ef 26 b9 3f
       0.03193764088707838 0.09825037557374812
000380 81 7c fd 10 46 32 c2 bf 39 98 4c eb e6 d9 c6 3f
       -0.14215923146818812 0.178524842159449
000390 cf 18 42 89 32 3a c1 bf c9 8f 58 ee ab 37 c3 bf
       -0.13458854391155348 -0.15013646257386729
0003a0 e0 d5 5e 48 54 a9 b5 bf af 39 d2 02 72 36 c8 3f
       -0.08461500899178231 0.189161540391479
0003b0 6b a7 ce 36 78 30 bf bf 00 ca 7e c7 38 1e b7 bf
       -0.1218333371931785 -0.09030489798059449
0003c0 33 f9 00 2e 5d d0 b3 3f 88 49 bc 98 ac a6 b8 bf
       0.07739813206805905 -0.09629324654478044
0003d0 11 a2 b8 de 3d bf b5 bf 7c 4d 6a 34 6b 94 a5 3f
       -0.08494936645059449 0.04214797034105808
0003e0 d7 ab 31 3d a9 db ac 3f 71 60 88 02 63 80 ac 3f
       0.05636338111874977 0.05566701322476398
0003f0 5a 4b 9f 72 6a 48 b3 3f 81 cd 27 28 d4 b3 84 3f
       0.07532372759241693 0.010108621097038252
000400 0c 9b 52 7d 00 47 ae bf e1 0a e3 2f d7 4b 87 3f
       -0.05913545160119868 0.011375123165981051
000410 52 9b 04 76 5b 9b c3 bf 81 a0 fa 4a 71 80 b8 3f
       -0.1531786276111356 0.09570987778227115
000420 4d b4 bb 22 73 08 cc 3f c8 ca 94 d5 7b 1e c7 bf
       0.21900786586721424 -0.18061778954287022
000430 5e 56 88 3e 60 a0 a7 bf a5 e4 bd e2 c2 45 b1 3f
       -0.04614544642769823 0.0674707225388312
000440 aa ce b9 65 eb 9f ab 3f ea ea fb da f6 f3 c4 bf
       0.05395446411867273 -0.16369519894200063
000450 a0 84 93 4d 3d e7 cd 3f ba 5e ea 38 90 5a a0 3f
       0.23361936843779052 0.0319409436680735
000460 38 9b 8f 85 0e 7d af bf 0a b3 0c 96 f6 22 b8 bf
       -0.061500982097462076 -0.0942834965068863
000470 13 e4 92 f9 08 57 c7 bf 7f e1 45 35 b9 1a c0 bf
       -0.18234359918804496 -0.12581553555697764
000480 58 18 d8 78 34 f3 b2 3f 99 cd f3 b0 e0 a9 7f bf
       0.0740235133199304 -0.0077303673744951945
000490 da d9 46 78 e4 7e a3 bf 69 c0 5d de 3b 44 b5 3f
       -0.03807748764249981 0.08307241610396122
0004a0 3b 5b 73 29 fa 19 9a bf 06 54 b2 a9 c0 bb bd 3f
       -0.025489720134682186 0.11614612715705172
0004b0 78 16 34 72 46 d4 85 3f 38 55 4d c3 7c 2d c0 bf
       0.0106587890245564 -0.12638816391214802
0004c0 d8 ab 25 25 ef 6f c0 3f 8b e1 e6 f2 db ba a5 3f
       0.1284159594900689 0.04244124736891582
0004d0 e3 57 60 db 3f 2d a9 3f 00 36 35 13 9b 96 90 bf
       0.04917335083898402 -0.01619951538787312
0004e0 0f 2e ec cb 9c cd ab 3f bf 2c a7 71 6e 90 b3 bf
       0.05430307378091125 -0.07642259859783261
0004f0 6a d6 51 38 08 13 85 3f a7 b4 97 b6 17 45 ab 3f
       0.010290207117786571 0.05326150993264749
000500 3e 4e 79 17 08 ad a6 bf d0 a2 47 3b 24 9d b5 bf
       -0.04428887640520117 -0.08442903945218494
000510 82 48 84 81 30 9b b3 bf a2 78 15 28 de e3 99 3f
       -0.07658675348310065 0.025283309170270336
000520 17 b2 51 5d 52 21 bf 3f 0f 66 61 a9 80 91 9a 3f
       0.12160219934748571 0.025945673311389025
000530 3b 89 c5 c6 1b bb ae bf 25 84 4a 02 59 3a bf bf
       -0.06002127458011094 -0.12198406511244338
000540 26 95 33 41 21 f0 91 3f ce 1f e1 c3 22 4e b2 3f
       0.017517585377295884 0.07150475771152218
000550 93 48 f4 e8 20 b0 b2 bf 2f e3 c9 90 1e a3 c0 bf
       -0.07300000846251668 -0.129978008935518
000560 26 6a e3 1e 20 af 95 bf 61 d8 99 0b 7a 35 c1 3f
       -0.02117586315658051 0.1344444805760672
000570 a8 49 11 1d 56 74 c0 bf 0b a4 e3 2e 45 10 a1 bf
       -0.12855030459702488 -0.0333272571313686
000580 d5 69 3b 27 a1 fb 69 3f cf 92 0a b3 22 13 be bf
       0.003171744110528988 -0.1174794852364116
000590 66 16 f7 75 58 fa c0 bf 85 c0 9d 1a ca a7 a4 3f
       -0.13263993988055062 0.04034263205437675
0005a0 f0 25 40 4d f6 42 c0 bf 60 bd a0 21 a8 4f b4 3f
       -0.1270435216140835 0.07934046574586295
0005b0 a5 d2 d8 64 a5 bf b8 bf e8 48 c0 2b 46 c1 b1 bf
       -0.09667428695758902 -0.06935537880079645
0005c0 09 70 e4 df bf ec c2 bf dd 0e ce 1c ba e3 b1 bf
       -0.1478500216697969 -0.06988108828778246
0005d0 b5 4e 15 0a c9 95 bf bf 4d ff 93 8a 1b 1f 68 3f
       -0.1233792924515978 0.0029445207516118122
0005e0 96 29 72 43 36 c5 b5 3f 58 81 22 a8 a5 45 b6 bf
       0.08504046579961363 -0.08700023035863091
0005f0 30 19 ac 8b 7e e3 99 bf f6 0e 97 7e 51 ca 80 3f
       -0.02528188445560281 0.00819839160511247
000600 ab 33 e4 22 47 78 a6 bf 68 c0 d0 3f 92 38 a4 bf
       -0.043886397370534645 -0.03949410466191311
000610 48 35 aa d7 22 db ae bf 0d 0f c5 95 af d2 60 3f
       -0.06026562578800082 0.002053587855842204
000620 38 09 b9 0c df 40 b4 3f d4 d6 d5 ab b4 76 92 3f
       0.07911485729804191 0.018030951488490057
000630 3b e5 d2 de d0 72 b1 3f b4 7e ef 79 2c f6 a4 3f
       0.06815820159944945 0.040940656552036186

fc3.bias f8 [4]
000000 e4 01 28 eb b2 7c 84 3f 7d db 48 9d f3 06 b6 3f
       0.010003469277763473 0.08604357328372987
000010 8c 00 44 3b cd a2 b0 3f f8 01 3c e3 ef 8e b9 3f
       0.06498415657915951 0.0998372964641091
