GPNet/GPNet2.pth (torch_old, 2265 bytes, 6 tensors)

fc1.weight f8 [10, 6]
-0.2001386784498668 0.10107660644940135 -0.04589406924871869 -0.39778041264946673 0.08918146404756064 0.26322985640741664 0.2681123957764503 -0.2867974170487615
0.13634931470792216 0.012989630381099352 0.3048148128185179 -0.15469242882740217 0.0011099363007023796 -0.006402800472032312 0.07268026299860655 2.9582884839063524
1.210651067686946 0.41906875439432417 1.3743028713859378 -0.16237463071235175 0.4081218321863479 1.6820373846434857 -0.023266851757004346 0.7632625443313877
0.00026619705228029216 0.012636876233028829 -0.06475116524395012 0.48841930878977236 -0.16469678060250958 -1.0697203796444779 -0.0003363079118104271 0.002028308756880215
-0.1501365756803662 -1.018630667885753 0.46218631035154356 0.6249376505100727 0.7014073731308675 0.26387242193254956 0.06312633692938201 -0.744950843926817
-0.22425027673816858 -0.23984158113954213 0.8776363918513832 0.014776247742899162 0.09470318737633854 1.09138745567304 -0.04251130644138774 0.34535789376414106
0.0003044864042594714 0.009926344699819664 -0.04148769253005739 -0.2874623617489471 2.7055033882976938 -1.3144956739234361 -0.0011860876493490116 0.0008661875309440234
-0.0817060431929098 0.6170272121682076 -1.043817561502507 -0.02379128022785148
00000000: ddac 4deb 249e c9bf 6341 170f 28e0 b93f
00000010: a7d8 016d 6d7f a7bf f267 d4f9 3b75 d9bf
00000020: 5661 7eaf 98d4 b63f bb70 260a c2d8 d03f
00000030: a2c5 e0e4 c028 d13f 1c4f b38d e35a d2bf
00000040: 2653 c0f3 e473 c13f c23f 64ad 4e9a 8a3f
00000050: d314 19fd 1582 d33f eb51 6025 f6cc c3bf
00000060: e5a0 2d07 692f 523f 5b44 15aa d239 7abf
00000070: 22c9 a478 2c9b b23f f316 1427 93aa 0740
00000080: 9f53 69a7 d35e f33f 818a b9c0 05d2 da3f
00000090: 886c f601 25fd f53f 4a08 4e20 b1c8 c4bf
000000a0: a288 8108 ab1e da3f 1e17 5b08 a0e9 fa3f
000000b0: 5644 82fd 43d3 97bf 2d48 4592 a56c e83f
000000c0: 5f0a 43a2 0b72 313f dbd9 27d1 5ce1 893f
000000d0: b3c4 1949 8893 b0bf f82a 7f0f 4342 df3f
000000e0: b4dd 38bb c814 c5bf f800 e71d 931d f1bf
000000f0: 0773 8c7b 4f0a 36bf 1a1c ddf8 ab9d 603f
00000100: 5c84 3de1 ac37 c3bf e559 d4ab 4f4c f0bf
00000110: 309a e7e3 7594 dd3f d95a 5f3e 7dff e33f
00000120: aba6 18e0 ed71 e63f 3210 a127 49e3 d03f
00000130: d3c2 a030 0c29 b03f 8b62 f926 a3d6 e7bf
00000140: 15cd 5aaa 3bb4 ccbf c48d 9b01 21b3 cebf
00000150: 08ff 18ea 9815 ec3f 66bb 8166 0243 8e3f
00000160: c8bb 9bd4 773e b83f f115 56b1 5276 f13f
00000170: 5982 c0bd 0ac4 a5bf b479 c8fe 571a d63f
00000180: 67a5 fb25 6ff4 333f 781d d66e 4354 843f
00000190: 86c9 34f5 df3d a5bf c4ba a288 c865 d2bf
000001a0: 72a5 dff5 dea4 0540 14c1 a39d 2c08 f5bf
000001b0: d353 81ea cf6e 53bf cac3 0d8f 1b62 4c3f
000001c0: 242c 66ef afea b4bf e724 20da afbe e33f
000001d0: be4c 1a0b 7ab3 f0bf becc 08ca bd5c 98bf

fc1.bias f8 [10]
-0.005004547702756831 -0.012788446790486463 -0.7441028420077497 0.055798059456987625 -0.3056639091387142 -0.28150568726460123 -0.30463766312863744 -0.43597288846723037
-2.428207037354813 0.732089284946102
00000000: 890d 6f0b a67f 74bf 20ad da45 d430 8abf
00000010: 0916 69c3 b0cf e7bf c896 1831 9091 ac3f
00000020: ea5e 545b ff8f d3bf 3620 1c6e 3004 d2bf
00000030: 791c 11f8 2e7f d3bf c633 7ad4 fae6 dbbf
00000040: 08d9 aacf f76c 03c0 9c0e 1382 466d e73f

fc2.weight f8 [6, 10]
0.2795877883473115 0.1706796148658172 -0.036596937626739635 -0.0387093766735055 -0.5428446861518937 -0.11471238772603347 0.10224268338619612 0.031144446224333478
-0.03751834622882519 -0.2535531165899689 0.03174739701856562 -0.02522812594571027 0.2701622343646969 0.1801654697797378 -0.19050545981716582 -0.1612150272755861
-0.1764124179936051 -0.05090936549855303 0.7195354342609227 0.3503996545804177 0.0969266810240663 -0.05324272071793017 -0.25116034725401337 0.21555339922063022
0.4506471553914831 -0.6256221854588997 0.1050209650508116 -0.19389941906645397 -0.25698104656192977 -0.3284470563213839 -0.40315956716779744 -0.10514169405426725
-1.1242672795087922 -0.2892098894681607 0.607700682528959 -1.1557585672870017 0.13673434936885256 -0.05685952717841123 -0.3423875142154804 0.8956129568907211
-0.06842127620880548 0.13690089150470688 0.6498278265147804 -0.495455550352147 0.18697973412769447 -0.30048455871664803 -0.09068670303064348 -0.023060515079524516
-0.30610528386220787 0.5014492998833145 -0.008315650978500833 0.050409111343676406 -0.45392288858207647 -0.30785663119402895 -0.7044915863744033 0.5012903503774663
0.07881244356304018 -0.024572409205361606 0.9307862828634551 -0.39120625763278044
00000000: d502 d42d c4e4 d13f d1a5 f861 d4d8 c53f
00000010: bd2f 7b74 d5bc a2bf f1f5 b825 b7d1 a3bf
00000020: 758d bad1 fb5e e1bf 03b9 ba81 ca5d bdbf
00000030: 8724 6695 932c ba3f 2d32 f167 54e4 9f3f
00000040: cc09 1bcc 9a35 a3bf ef60 e3d9 363a d0bf
00000050: 6a11 dbdf 3141 a03f 2e39 81df 66d5 99bf
00000060: 767b 4d8a 564a d13f 0c46 4980 a90f c73f
00000070: c8e4 cf9f 7b62 c8bf afdd e2aa b1a2 c4bf
00000080: 4106 f29e ae94 c6bf fab6 c0d7 ca10 aabf
00000090: 9fd7 ce2c 6f06 e73f 3ff7 3cac f26c d63f
000000a0: 3fb2 1bdd 2fd0 b83f b696 7740 a142 abbf
000000b0: ec82 60d9 0213 d0bf d0dc 18f8 4097 cb3f
000000c0: 4547 9c2a 67d7 dc3f 3056 46d1 1805 e4bf
000000d0: d09f 496a a7e2 ba3f ee49 cd37 b2d1 c8bf
000000e0: cc38 aba1 6072 d0bf 438a 57cd 4605 d5bf
000000f0: 7c88 03c9 5dcd d9bf cbbb 68e9 90ea babf
00000100: 1e40 d7af fffc f1bf 7b83 3c32 6a82 d2bf
00000110: 1000 a7b3 4872 e33f 9f1c 09b2 fc7d f2bf
00000120: 3db8 63db 8280 c13f 6d04 6523 b11c adbf
00000130: 704f 0752 ade9 d5bf 2f06 f780 dca8 ec3f
00000140: e2da aa87 0e84 b1bf b529 e7e9 f785 c13f
00000150: 012d ddb9 63cb e43f f595 5832 8bb5 dfbf
00000160: baee 8bb1 f3ee c73f 1006 2996 233b d3bf
00000170: 8ddc b267 3e37 b7bf 94c3 61f8 2c9d 97bf
00000180: ed8a d49d 3a97 d3bf d73a f366 df0b e03f
00000190: ba1b fbc7 cb07 81bf 5d74 4819 39cf a93f
000001a0: 6b6a 5796 120d ddbf 1472 b54c ecb3 d3bf
000001b0: 8920 79f0 318b e6bf bd7d 950f 920a e03f
000001c0: a000 9f63 0d2d b43f 780f af77 8229 99bf
000001d0: a3d8 8e50 00c9 ed3f 717e a1f8 8509 d9bf

fc2.bias f8 [6]
-0.007122924879754591 -0.07755033648134453 -0.3203204729287316 0.3643967356419799 -0.31889776708631046 0.5461163765551796
00000000: d00a 9196 ed2c 7dbf fd2d fbbe 56da b3bf
00000010: 43f6 dd70 2180 d4bf 577e 96af 4652 d73f
00000020: dccc 192e d268 d4bf 21aa 230d c979 e13f

fc3.weight f8 [4, 6]
0.38202187621667894 1.267531852692502 -0.3504927088648511 2.016549092364844 -0.9483467943208465 1.5047971595965355 0.48415407432957136 -0.4323701361319827
-0.6427704925036304 -0.3445060445575102 0.3337076989405353 -0.3794687705817841 0.7774887689500651 0.30077387092040686 0.4419307181502031 0.07150520529342162
-0.07243506218310333 -0.07944608167932335 -0.05681752580366483 -0.0273205325516121 -0.03834869826930449 -0.008795667329729119 -0.07076007618312018 -0.07127507703396965
00000000: b442 2de2 0b73 d83f ca3d df7a cf47 f43f
00000010: 2de7 83f8 786e d6bf 48e2 937d e421 0040
00000020: b1fb 5b60 db58 eebf 024b b92f a613 f83f
00000030: 541f de5e 61fc de3f 400d 9dca f3ab dbbf
00000040: 8861 846c 9391 e4bf 5a86 a914 630c d6bf
00000050: 72df 5789 775b d53f 3c22 e061 3749 d8bf
00000060: 06bb 7420 30e1 e83f d80b c60c e13f d33f
00000070: f962 63c7 9748 dc3f 87a0 3a46 2a4e b23f
00000080: eeff 28af 1a8b b2bf 6aa8 9b12 9456 b4bf
00000090: 4f2f 55ce 2f17 adbf f11e 46e7 e9f9 9bbf
000000a0: e958 d2c9 70a2 a3bf 74b1 387c 7603 82bf
000000b0: ffa7 1115 551d b2bf d27a e15c 153f b2bf

fc3.bias f8 [4]
-0.7281519742540589 -0.1431570908484598 0.09640682271479582 0.033172435100491844
00000000: 6d0c 7e5e 054d e7bf be3b b1b7 f852 c2bf
00000010: 7fdb ab16 1eae b83f 6145 c537 fafb a03f
